"C:\Program Files\Anaconda2\python.exe" D:/Projects/VCOM/opencv-learning-python-project/deep-learning/cifar10_custom.py
Using Theano backend.
Using gpu device 0: GeForce GTX 860M (CNMeM is enabled with initial size: 82.5% of memory, cuDNN 5005)
Model visualisation saved to custom.png
____________________________________________________________________________________________________
Layer (type)                     Output Shape          Param #     Connected to
====================================================================================================
convolution2d_1 (Convolution2D)  (None, 32, 32, 32)    896         convolution2d_input_1[0][0]
____________________________________________________________________________________________________
dropout_1 (Dropout)              (None, 32, 32, 32)    0           convolution2d_1[0][0]
____________________________________________________________________________________________________
convolution2d_2 (Convolution2D)  (None, 32, 32, 32)    9248        dropout_1[0][0]
____________________________________________________________________________________________________
maxpooling2d_1 (MaxPooling2D)    (None, 32, 16, 16)    0           convolution2d_2[0][0]
____________________________________________________________________________________________________
convolution2d_3 (Convolution2D)  (None, 64, 16, 16)    18496       maxpooling2d_1[0][0]
____________________________________________________________________________________________________
dropout_2 (Dropout)              (None, 64, 16, 16)    0           convolution2d_3[0][0]
____________________________________________________________________________________________________
convolution2d_4 (Convolution2D)  (None, 64, 16, 16)    36928       dropout_2[0][0]
____________________________________________________________________________________________________
maxpooling2d_2 (MaxPooling2D)    (None, 64, 8, 8)      0           convolution2d_4[0][0]
____________________________________________________________________________________________________
convolution2d_5 (Convolution2D)  (None, 128, 8, 8)     73856       maxpooling2d_2[0][0]
____________________________________________________________________________________________________
dropout_3 (Dropout)              (None, 128, 8, 8)     0           convolution2d_5[0][0]
____________________________________________________________________________________________________
convolution2d_6 (Convolution2D)  (None, 128, 8, 8)     147584      dropout_3[0][0]
____________________________________________________________________________________________________
maxpooling2d_3 (MaxPooling2D)    (None, 128, 4, 4)     0           convolution2d_6[0][0]
____________________________________________________________________________________________________
convolution2d_7 (Convolution2D)  (None, 256, 4, 4)     295168      maxpooling2d_3[0][0]
____________________________________________________________________________________________________
dropout_4 (Dropout)              (None, 256, 4, 4)     0           convolution2d_7[0][0]
____________________________________________________________________________________________________
convolution2d_8 (Convolution2D)  (None, 256, 4, 4)     590080      dropout_4[0][0]
____________________________________________________________________________________________________
maxpooling2d_4 (MaxPooling2D)    (None, 256, 2, 2)     0           convolution2d_8[0][0]
____________________________________________________________________________________________________
flatten_1 (Flatten)              (None, 1024)          0           maxpooling2d_4[0][0]
____________________________________________________________________________________________________
dropout_5 (Dropout)              (None, 1024)          0           flatten_1[0][0]
____________________________________________________________________________________________________
dense_1 (Dense)                  (None, 1024)          1049600     dropout_5[0][0]
____________________________________________________________________________________________________
dropout_6 (Dropout)              (None, 1024)          0           dense_1[0][0]
____________________________________________________________________________________________________
dense_2 (Dense)                  (None, 512)           524800      dropout_6[0][0]
____________________________________________________________________________________________________
dropout_7 (Dropout)              (None, 512)           0           dense_2[0][0]
____________________________________________________________________________________________________
dense_3 (Dense)                  (None, 10L)           5130        dropout_7[0][0]
====================================================================================================
Total params: 2751786
____________________________________________________________________________________________________
…
